linkertelopsdk/handretarget/install/lib/ros_linkerhand_retarget/models/l20_8_right_trumbend_model_ericli.pth (torch, 21388 bytes, 6 tensors)

fc1.weight f4 [64, 3]
000000 e9 b0 d7 be f9 0e ad 3e 8a 0d 67 be 76 a6 11 3f
       -0.4212716 0.33800486 -0.22563758 0.56894624
000010 56 a1 18 be 10 f0 71 be e2 8f 79 be 80 23 11 3f
       -0.14905295 -0.23626733 -0.24371293 0.56694794
000020 00 ac 2b bc 59 02 0d bf f9 85 10 bf 4c a6 aa bd
       -0.01047802 -0.5508171 -0.56454426 -0.083325
000030 d0 ae 60 bd 68 7b d8 3d d8 db e2 3e 32 fb b3 be
       -0.054854214 0.10570413 0.44308352 -0.35152584
000040 50 91 a4 be f5 08 a4 be bc 1c 5d 3e 30 57 6a 3d
       -0.32142115 -0.32038084 0.21592993 0.057212055
000050 08 64 9e 3e 91 80 ec 3b ad d9 db bd 10 89 34 bf
       0.30935693 0.0072174747 -0.10734878 -0.7052164
000060 fc 1d 8c 3e 81 70 68 3e 72 d1 c2 be 94 71 6a bd
       0.27366626 0.22699167 -0.3805042 -0.057237223
000070 23 0b 97 3f 33 98 04 3f 71 55 c9 3d b0 bb 2f 3f
       1.1800274 0.5179474 0.0983075 0.68645763
000080 67 69 7a 3e 9d e9 2a bf 46 f9 09 bf 3f 0d 11 bf
       0.2445427 -0.66762716 -0.53895986 -0.56660837
000090 23 5e 8e be 18 a1 bf bd d0 11 0c 3e 24 8b ef 3d
       -0.27806196 -0.09356898 0.1367867 0.11696461
0000a0 28 09 e1 3e ef 6e 60 3e 8c ae df 3e 74 bf 71 3e
       0.43952298 0.21917318 0.43687856 0.2360819
0000b0 0c db 72 3e ac b7 bc 3c cb 4f 5b bd d6 e5 af 3e
       0.23716372 0.0230368 -0.053542893 0.34355038
0000c0 90 63 21 3e 36 2f da be a0 54 d0 3e 36 c0 38 3f
       0.15760636 -0.42614144 0.40689564 0.7216829
0000d0 75 d7 60 3f 6b 3d 0a bf a9 28 11 3e fc f9 df 3e
       0.8782876 -0.53999966 0.14175667 0.4374541
0000e0 5a 14 17 bf 2e 1a a8 be fc 04 ae 3e 67 c6 a0 3e
       -0.5901543 -0.32832474 0.33988178 0.3140137
0000f0 84 4d b2 3e da bf 02 bf 78 95 ac 3d c8 a1 1a bf
       0.34824765 -0.5107399 0.084269464 -0.6040311
000100 cb 1f e3 bd db ed 60 be 0c 56 53 be 00 ce 09 bc
       -0.110900484 -0.21965735 -0.20638293 -0.008410931
000110 97 08 f1 be 9c 52 be be 6b 7e ee be fc 15 ab be
       -0.47076866 -0.371724 -0.46580824 -0.3341521
000120 79 26 01 3f c9 e1 c3 be f5 ff 7d 3e 2a 12 db be
       0.5044933 -0.38258198 0.24804671 -0.42787296
000130 e0 c9 16 be 20 77 7d bd 78 d0 9d bd 88 0d a4 be
       -0.14725447 -0.061881185 -0.07705778 -0.32041574
000140 ae d3 a8 3e 16 4e 05 bf c8 ed ea 3e fa 6f 05 be
       0.32974 -0.52072275 0.45884538 -0.13030997
000150 1e 41 57 3e 83 0a b0 be 9b a8 6e 3e 24 a0 eb 3e
       0.21020934 -0.3438302 0.23306505 0.46020615
000160 1a a0 dd be 98 51 80 bd 19 22 1f be fb 4d f0 3e
       -0.4328621 -0.06265563 -0.15540351 0.46934494
000170 6a 4d 4a be 13 e3 07 3b 96 d9 24 bf 0c 2f 1c 3e
       -0.19756094 0.0020734712 -0.6439451 0.15252322
000180 cc d2 a9 3e 92 7f 57 bf 69 9b 91 bd 3c 38 04 bd
       0.33168638 -0.8417903 -0.0710972 -0.03228019
000190 0d 69 2b bf 9c 4e 76 3e e0 43 ff 3c 4a 30 ad 3e
       -0.6695717 0.24053425 0.031160295 0.33825904
0001a0 4e 25 ca be 25 6f 14 3e 8c 98 ad be 54 34 d4 be
       -0.39481586 0.14495523 -0.33905447 -0.41446173
0001b0 40 90 0b 3f a8 a3 0e bf be 59 eb 3e 53 6c 02 bf
       0.54516983 -0.5571847 0.45966905 -0.5094654
0001c0 3e ee 88 be 33 fc 33 bf 19 58 88 3e 9b 1f c6 3e
       -0.26744264 -0.703067 0.26629713 0.38695988
0001d0 ab ed 6f be 19 73 a9 3e a5 2f 46 3f 98 b3 0b bf
       -0.23430507 0.33095625 0.7741645 -0.54570913
0001e0 87 58 07 bd 1d 40 d9 be c0 27 1a 3f c0 a3 7f 3d
       -0.03304341 -0.42431727 0.60216904 0.062412024
0001f0 c0 5f d7 3e 60 7c 20 3d 66 fd e4 3e 64 9a 4f be
       0.4206524 0.039181113 0.44724578 -0.20273739
000200 17 28 b3 be 24 d0 23 be 44 03 90 3e 78 e7 cb 3d
       -0.34991524 -0.15997368 0.2812749 0.099562585
000210 d6 7d 05 bf 2a e1 40 3e cc 67 ab 3e 37 39 2c bf
       -0.52145135 0.18835893 0.33477628 -0.672748
000220 35 48 d8 3e fc 26 67 3e 23 f9 cb be 9c d3 e6 3e
       0.4224259 0.22573465 -0.39838514 0.4508332
000230 90 5f e6 3d 72 1f 44 be 60 36 b6 3e 8c 1d 00 bf
       0.11248696 -0.1915262 0.3558836 -0.50045085
000240 d1 05 04 3f 66 9f 6d 3f de d7 c5 be 90 bf 89 be
       0.51571375 0.9282135 -0.38641256 -0.26903963
000250 cd 14 5b bf 63 97 35 bd 13 88 f2 3e 9e 22 e7 be
       -0.85578614 -0.044333827 0.4736944 -0.45143598
000260 fb ec 02 3f 19 98 6d 3e 68 c6 25 bf 8d 92 45 be
       0.51142853 0.23202552 -0.6475587 -0.19294186
000270 40 96 5a 3d 74 4e bb 3e d4 b6 be be ef 83 d8 be
       0.053365946 0.36583292 -0.37248862 -0.42288157
000280 43 b4 ab bd 14 8e 25 be 1c 27 be bd f0 11 07 3e
       -0.083839916 -0.1616748 -0.09284803 0.13190436
000290 82 9d 0e 3f f8 ea c0 3d e4 3b 0d 3f 3c 02 e0 be
       0.5570909 0.09419817 0.5516951 -0.43751705
0002a0 16 23 0d 3f 98 e1 de be f4 c0 06 bf bc 1f ec 3e
       0.5513166 -0.4353149 -0.52638173 0.4611796
0002b0 ae 7d b7 3e dc 32 bf bd 16 b1 06 3f ee 13 42 bf
       0.35838073 -0.093358725 0.5261396 -0.7581166
0002c0 da ba a8 3e 8a 66 95 be 6c dc da be 78 61 0a 3f
       0.32955056 -0.29179794 -0.42746294 0.54054976
0002d0 44 99 44 be e3 fb 5b bf 61 4c ca 3e 36 c9 90 be
       -0.19199091 -0.85931224 0.39511397 -0.28278512
0002e0 02 cb 09 bf e7 e5 9a be 5f 65 a4 3e 83 bc 58 bd
       -0.5382539 -0.30253527 0.3210859 -0.052914154
0002f0 95 92 24 3f 29 0a f5 bd f4 e0 22 bf 9d 53 de 3e
       0.64286166 -0.119648285 -0.636245 0.43423167

fc1.bias f4 [64]
000000 34 c8 ff 3e a7 f6 89 be 4e b4 d9 be f7 bf f6 be
       0.4995743 -0.26945993 -0.42520374 -0.48193333
000010 38 53 ba be c0 ff 52 be 54 22 0d bf 44 87 63 3e
       -0.36391616 -0.20605373 -0.55130506 0.22219568
000020 1e a6 a5 3e d7 9e b2 bd 9c 17 f7 3e e4 a4 80 3e
       0.323533 -0.087217025 0.482602 0.25125802
000030 90 17 79 be 32 52 aa 3e 34 5e ee bd 78 6c da 3d
       -0.24325395 0.33265835 -0.116390616 0.1066522
000040 be 00 d9 be 38 7f 3c 3e 14 f9 02 3f 7e 07 8d 3d
       -0.4238338 0.18407905 0.51161313 0.06886195
000050 97 79 f6 be 42 cd d1 3e 66 3c 2b be d0 e4 ea 3e
       -0.4813964 0.40976912 -0.16722259 0.45877695
000060 ee b1 2f 3d f0 1e 13 3d 79 03 09 bf 80 ac 1c bd
       0.042894296 0.035918176 -0.53520924 -0.038250446
000070 b6 67 ed 3e a2 04 e2 be 41 92 bb 3e 5c f7 31 3d
       0.46368188 -0.4414416 0.3663502 0.04344879
000080 ae 01 9a 3e fc 0b 10 3d a0 2f bc bd 2e e5 00 3f
       0.30079406 0.03516768 -0.09188771 0.503497
000090 cf be 17 3e fa e9 2c 3e 54 ef 88 3e bb d3 d1 3e
       0.14818881 0.1688613 0.26745093 0.4098185
0000a0 f9 c6 4b 3e 42 72 73 be 32 f0 50 3e 32 ae 2e be
       0.19900121 -0.23774055 0.20404127 -0.17058638
0000b0 86 66 0d 3f be 87 40 3e df ae 92 be 1b 0f 02 bf
       0.55234563 0.18801782 -0.2864904 -0.508043
0000c0 3c 16 8d 3e 2c 7b 2a 3e 98 72 1c be 30 75 f0 3e
       0.27556026 0.16648549 -0.15278089 0.46964407
0000d0 f0 16 9f be 4a 7e bd 3e dc 8f 95 be 4f 6f ee be
       -0.31072187 0.37010413 -0.29211318 -0.46569297
0000e0 e0 ec 85 bd 8e f7 b1 be f9 6d 65 3c 97 2f 03 bf
       -0.06539321 -0.34759182 0.01400327 -0.5124449
0000f0 71 1f d9 3c 0b 51 0f bf 8e 21 af 3e 52 28 9d 3e
       0.02650425 -0.55983037 0.34205288 0.30694824

fc2.weight f4 [64, 64]
000000 ec 50 50 3d 46 41 ff 3d b0 51 7d bc 80 5e 2e 3c
       0.050858423 0.12463622 -0.01546137 0.010642648
000010 18 cf ec bd b2 ec 96 3d b0 60 c0 3d c2 4d 9a 3d
       -0.115629375 0.07369365 0.09393442 0.075343624
000020 00 5e 83 3c b8 e6 a6 bd 16 83 85 3d 40 9a e9 3c
       0.016036034 -0.08149475 0.06519143 0.028515935
000030 82 b1 b0 3d 2c a2 34 bd 3c 9a e5 3d 18 7d 90 3d
       0.08627607 -0.04409997 0.112110585 0.0705511
000040 00 fe 72 3c 96 0a a5 bd 78 79 17 bd f8 36 7b 3d
       0.014831066 -0.0805866 -0.036981076 0.06133172
000050 dc 4c 2b bd a0 a6 cc bd d0 5a df bd d8 cf 04 bd
       -0.041821346 -0.09992719 -0.10905993 -0.032424778
000060 5a a5 f8 bd 00 8e 82 bc cc 92 d5 bd 20 0f da bd
       -0.12140913 -0.015936852 -0.1042839 -0.10647416
000070 68 8f cc bd f0 06 75 3d 8c b7 4e 3d 58 16 74 bd
       -0.0998829 0.05982107 0.050468013 -0.05959162
000080 ee a2 b4 bd 56 9e 93 3d c0 14 93 3d 40 3e 1b bd
       -0.08820139 0.072079346 0.07181692 -0.037901163
000090 00 dd 2a 3c 68 a6 0d 3d 1c 06 c7 3d b0 e7 5f 3c
       0.010428667 0.034582525 0.09717962 0.013666078
0000a0 f0 2b b9 3c 00 64 fb b9 20 88 cc 3b 62 98 f4 3d
       0.022603959 -0.00047948956 0.0062418133 0.11943127
0000b0 7c 89 5f bd 1a 06 92 bd 5a 36 cc 3d 6e 8a a5 3d
       -0.054574475 -0.0713007 0.09971304 0.08083044
0000c0 70 64 75 3d 00 9d 32 ba 80 53 a6 3b 74 cf 12 bd
       0.059910238 -0.0006813556 0.005075872 -0.035842374
0000d0 76 f1 c6 3d 5c 08 96 3d e8 41 30 3d 5a a8 93 bd
       0.09714024 0.07325813 0.043031603 -0.07209845
0000e0 f8 45 ba 3d aa 6c a8 3d b2 b7 f2 bd 70 b8 5d bd
       0.09095377 0.08223851 -0.11851443 -0.05413097
0000f0 d4 d0 b5 3d 00 c1 6a 3d d2 1f c4 bd 98 aa 95 bc
       0.088777214 0.057312965 -0.09576382 -0.018269822
000100 68 13 16 bd d4 d8 33 bd a0 a9 bb 3b 60 a7 26 3d
       -0.0366396 -0.043907955 0.005727008 0.040686965
000110 90 c5 ce 3d f8 c5 93 3d 18 9f 61 3d 80 09 28 bd
       0.10096276 0.07215494 0.055083364 -0.041024685
000120 78 ec f4 bd 84 70 67 bd b2 40 d9 3d 6a fd f4 3d
       -0.11959165 -0.056503788 0.10608043 0.119623974
000130 ec 40 d2 3d 68 ed 95 bc c4 40 19 bd 9e 3a ba 3d
       0.10266289 -0.01830168 -0.03741528 0.090932116
000140 44 a4 4f 3d b4 77 d1 bd b4 89 e4 3d 40 9e 5b 3c
       0.050693765 -0.1022791 0.11159077 0.013404429
000150 c4 ed ed 3d b8 06 b8 bc ec b1 c9 bd b0 d3 b3 3c
       0.11617616 -0.022464141 -0.09848389 0.021951526
000160 80 3f b9 3d 32 72 d2 bd 68 4d 96 bd bc 44 c2 bd
       0.09045315 -0.10275687 -0.07338983 -0.09485766
000170 44 48 f9 bd ac ba db 3d b4 83 b3 bd d0 7d 5b 3d
       -0.12171987 0.10728964 -0.08765355 0.05358678
000180 3c 90 9a bd 44 05 69 bd 64 6b 11 3d 00 1c 1a b9
       -0.07547042 -0.056889787 0.035502806 -0.00014697015
000190 64 b4 7a 3d be 47 d0 3d 90 45 96 bc f8 5a 93 bd
       0.06120719 0.10169934 -0.018343717 -0.07195085
0001a0 8e db dc bd a0 f8 8c 3c 90 8e 2c 3d 14 b0 6a 3d
       -0.10784064 0.017208397 0.042128146 0.057296827
0001b0 30 39 41 bd 20 af 49 bc 10 d9 39 3c e8 09 df 3d
       -0.04717368 -0.012309819 0.011343256 0.10890561
0001c0 20 8c 0c bd 50 c2 59 3d e4 11 3d bd 10 5b fd bd
       -0.03431332 0.053163826 -0.04615964 -0.123708844
0001d0 d2 be 8f bd e0 e9 fc 3d ca cd 9d 3d fc 5d 9c 3d
       -0.07018818 0.123492956 0.07705267 0.076351136
0001e0 a6 07 ea 3d d8 dc 1f bd a8 e6 cc bc f0 80 b7 bc
       0.1142724 -0.039028972 -0.02501233 -0.02240035
0001f0 ee ff a4 3d 60 1d 2a 3c f4 f7 6e 3d 80 13 5e 3d
       0.08056627 0.01038298 0.058341935 0.054217815
000200 ac 15 a9 3d 42 aa dc bd d8 a2 d1 bc 74 e7 1b bd
       0.08256087 -0.107746616 -0.025590345 -0.038062528
000210 56 8b a0 3d 70 89 7a bc 76 8e a8 3d 2c e4 3f 3d
       0.07839076 -0.015291557 0.08230297 0.04684846
000220 fe 76 b5 bd 20 6c 18 bd d0 97 05 bd 30 a2 d3 3c
       -0.088605866 -0.03721249 -0.032615483 0.025834173
000230 4a 30 c6 3d 86 ed d0 bd 12 1b ed 3d e0 c2 f9 bc
       0.09677179 -0.10201554 0.11577429 -0.030488431
000240 40 3e 8d bc c8 dd be bc b0 19 0f bc a8 2f a5 bc
       -0.017241597 -0.023299113 -0.008734152 -0.020164326
000250 4a 75 80 3d 40 ba 4b bc 36 08 bf 3d 88 89 43 bd
       0.06272371 -0.012434542 0.09327738 -0.047738582
000260 10 e5 9b 3c a2 21 ef bd 60 c1 32 3d a0 58 4d bd
       0.019030124 -0.11676337 0.043641448 -0.050133348
000270 00 56 2b 3a 6c aa 7d bd a0 69 01 3c 80 dd bb bc
       0.00065359473 -0.061930105 0.007898718 -0.022932768
000280 20 a5 ad 3b ee bb ac 3d 38 d5 f7 3c 20 06 9f 3d
       0.0052992254 0.08434282 0.030253038 0.0776484
000290 2a fe fd bd 00 29 11 ba 80 97 04 3d 60 2f 34 bc
       -0.124019936 -0.00055374205 0.032371044 -0.010997623
0002a0 0c c4 51 bd d4 3d 51 bd c6 b6 df 3d fe e5 ba 3d
       -0.051212355 -0.051084355 0.10923533 0.09125899
0002b0 a0 05 9d bb b0 37 99 3d 8a e5 8c 3d 40 9e 25 3c
       -0.0047919303 0.07481325 0.068797186 0.0101085305
0002c0 bc 81 f6 bd 00 a8 06 bb b0 77 1f bc 80 80 c5 bd
       -0.120364636 -0.0020546913 -0.009733126 -0.0964365
0002d0 60 4b da 3b 30 8b 18 bc d4 f5 1d 3d a6 3c f1 3d
       0.0066618174 -0.009310529 0.038564518 0.11779146
0002e0 b0 7e 25 3d 8c c3 8a 3d da e8 ae 3d 30 ba a2 bd
       0.04040402 0.06775579 0.08540507 -0.07945669
0002f0 a0 49 d3 3b 2a 6c c2 bd 84 33 aa bd 3e 45 e2 bd
       0.006447986 -0.09493287 -0.08310607 -0.11048363
000300 70 3f 26 bc d6 d5 85 bd 36 18 9b bd c2 3f 90 3d
       -0.010146961 -0.065349266 -0.07572977 0.07043411
000310 b8 1c c3 bc 8a 8d d6 3d 42 9e e8 bd 52 08 e6 3d
       -0.023817405 0.10476215 -0.1135831 0.11232056
000320 3e 24 e3 bd 48 7a 82 bd 70 42 58 bc 6a 56 bf bd
       -0.11090897 -0.063709795 -0.013199434 -0.09342654
000330 b0 e7 29 3c 98 fc c1 bd c0 50 64 3b 68 8f f4 bc
       0.01037018 -0.094720066 0.003483817 -0.029853538
000340 2c 42 78 3d 90 0f 90 3d c4 a5 65 3d b8 a0 db bd
       0.06060998 0.07034218 0.05606629 -0.10724014
000350 6c 2e e3 3d 10 06 d1 bc 68 ae 3f 3d 30 b0 83 3d
       0.11092839 -0.025515586 0.046797186 0.064300895
000360 f2 78 fd 3d 48 d2 db bc a0 18 80 3d 68 5c 6b bd
       0.12376584 -0.026833668 0.06254697 -0.057461172
000370 14 07 c7 bd c0 d8 5d bd c8 9f 99 3d 40 32 fc 3b
       -0.09718147 -0.054161787 0.07501179 0.00769642
000380 86 e3 c3 3d f8 fa 99 3d e0 3a 8a bb 00 31 bc bb
       0.09564881 0.075185716 -0.004218444 -0.005743146
000390 e0 0e 6e 3d f8 db 3a 3d 00 7a 14 3c 40 68 60 3d
       0.058119655 0.045619935 0.00906229 0.05478692
0003a0 94 a5 af bd 20 5d 1b bc 14 3f 70 3d 40 4c af 3b
       -0.085765034 -0.009482652 0.058653906 0.005349666
0003b0 90 22 42 bc 60 1b 44 bd 1c 88 88 bd 80 86 77 bc
       -0.011849061 -0.04787767 -0.06666586 -0.015107751
0003c0 04 e0 de bd 00 4a dc b9 e4 1f e2 bd fa 15 cb bd
       -0.10882571 -0.00042016804 -0.11041239 -0.09916301
0003d0 98 62 d5 bd 40 de aa 3c c8 fd 1d bd d0 6c 94 3d
       -0.10419196 0.02085793 -0.038572103 0.07247317
0003e0 a0 f9 78 bd 56 c3 ad 3d 80 c1 05 bc 48 77 f3 bd
       -0.060784936 0.08484523 -0.00816381 -0.118879855
0003f0 ca ac fa bd 4a 1a a9 3d 9c c5 b8 bd 4e f2 99 bd
       -0.12239988 0.08256967 -0.09022066 -0.07516919

fc2.bias f4 [64]
000000 00 f8 69 3a 80 48 36 3c 92 9a fe bd 9c 07 39 bd
       0.00089251995 0.011125684 -0.12431826 -0.045173272
000010 78 c2 55 bd 4f bb 87 bc 06 8d e1 bd 74 c7 ee bd
       -0.052187413 -0.016568808 -0.11013226 -0.116591364
000020 f3 69 b7 3d ef c0 60 3d e9 b8 c8 3c 6e 14 c8 bd
       0.08955755 0.054871496 0.024502235 -0.09769522
000030 46 ef ea bd e9 65 12 3d ed ef 56 3d 4b 71 88 3d
       -0.11471419 0.03574172 0.052474905 0.06662234
000040 21 0a 53 3c 62 fc fe bd e4 40 af bd 7c ac e1 bd
       0.012880833 -0.12450482 -0.08557299 -0.11019227
000050 fd 83 92 bc b8 90 cb bd f0 67 c2 3c 6c 69 41 bd
       -0.017885203 -0.09939712 0.023731202 -0.04721968
000060 d6 7c c7 bd c1 06 d4 bd c4 df 6d bd 1c c2 22 3d
       -0.097406074 -0.10352851 -0.058074728 0.0397359
000070 b0 2c 39 bd 3c 55 a2 3b 6c b2 98 3d 80 80 a6 bd
       -0.045208633 0.0049540084 0.07455906 -0.08129978
000080 b9 19 e3 3d 1f ec 91 3d 80 9d 36 3d e8 a7 b9 3d
       0.110888906 0.07125115 0.044583797 0.09065229
000090 f3 4c 8f bd 28 97 e4 bd a0 0c 35 3d c0 63 a3 3d
       -0.06997099 -0.11161643 0.044201493 0.0797801
0000a0 2b a8 15 3c 3c 70 ee bd f4 a2 21 bd 90 21 d9 bd
       0.009134333 -0.11642501 -0.039462045 -0.10602105
0000b0 40 a2 59 3c 16 66 ee 3d 57 f3 21 ba 25 04 cc 3b
       0.013283312 0.11640565 -0.0006177923 0.00622608
0000c0 30 ce 38 bd a9 e7 0d bd 8e df e8 3d cb 0e 3b bc
       -0.04511851 -0.034644756 0.11370765 -0.011417101
0000d0 38 be a6 3d 4f 1e ae 3d 1c 36 ca 3d 49 b6 9b 3d
       0.0814175 0.08501875 0.09873602 0.076031275
0000e0 52 74 88 bd d0 b8 d2 3c 9a bc f7 bd 9a 1c d0 3d
       -0.06662811 0.025722891 -0.1209652 0.10161705
0000f0 ea 8b ee 3d 52 22 99 3d ba 5d b3 3d 22 46 d2 3d
       0.1164778 0.07477249 0.08758111 0.10267283

fc3.weight f4 [3, 64]
000000 e0 ae 8e 3c 36 fe e0 3d b8 4f 46 bd 68 62 5f bd
       0.017417371 0.10985987 -0.04841587 -0.054537207
000010 b7 1b a5 3d 0a 49 0a 3d 2e ae e5 3d fd 76 de 3c
       0.08061927 0.03376106 0.11214863 0.027156347
000020 32 6e ab bc 3c 04 db bd 40 0b eb bd c8 e7 0e be
       -0.020926569 -0.10694167 -0.11476755 -0.13955605
000030 a8 2a c7 bc b8 09 91 bd 05 79 06 bb 38 e4 2d 3c
       -0.024312332 -0.07081932 -0.002051891 0.010613494
000040 0a 1a 7b 3d 1a b9 f7 bd 42 6d b6 bd c8 65 58 3d
       0.06130413 -0.12095852 -0.08907558 0.05283144
000050 21 37 17 3d d0 0f aa 3c a6 e9 c5 3d c0 b0 0e bb
       0.03691781 0.020759493 0.096637055 -0.0021772832
000060 40 f9 75 bd f4 de ee 3c e2 36 5d 3d ee 1b a4 3d
       -0.060052156 0.029159047 0.05400742 0.0801314
000070 00 f8 1a bb a6 cb 21 bd 40 a7 74 3b 9c f1 28 3d
       -0.0023646355 -0.039500855 0.0037331134 0.04124604
000080 46 7b 04 3d f6 30 c3 3d a0 ed 7a bc 69 f7 42 3b
       0.032344125 0.09530823 -0.015315443 0.0029749519
000090 1e 9e 5a bd 5e bb e0 3d d8 5a d3 3c b4 ce 7c 3d
       -0.05337345 0.109732375 0.025800154 0.061720565
0000a0 81 f6 8a 3d 08 c4 27 3d 98 37 c5 3d 82 5c 9d 3d
       0.06785298 0.040958434 0.09629744 0.0768366
0000b0 6e 8c 8c 3d f5 8d 9b 3d 8b 5e 9e 3d 8c f3 9c bd
       0.06862722 0.075954355 0.077328764 -0.076636404
0000c0 d0 3b c1 bc c4 ce 7d 3d f3 fc 11 bd a3 6b 0b 3d
       -0.023588091 0.061964765 -0.03564162 0.034038197
0000d0 86 a8 af bd 9b 2b 81 bd 3b 54 d1 3d 61 67 e2 3d
       -0.08577065 -0.06307145 0.10221144 0.11054874
0000e0 82 c4 bd bd a2 5a bf bd 4e d2 e6 3d ac bd 0b be
       -0.092659965 -0.09343459 0.11270581 -0.13646573
0000f0 1d a5 24 3c 20 00 51 bd 04 1a 1c 3d c3 ec 1c 3d
       0.010049132 -0.05102551 0.038110748 0.03831173
000100 48 53 a4 bc b6 e4 a6 3d a4 84 f7 3d 9c 0c b0 3d
       -0.020059243 0.08149092 0.12085846 0.08596155
000110 6c 64 2c be 0b 33 56 3c 30 b4 ae bd 95 1c a2 bd
       -0.16835183 0.013073693 -0.08530462 -0.07915608
000120 9b d8 cf 3d f9 0e 9d bd b6 9f cf bd 53 96 5b 3e
       0.10148736 -0.076688714 -0.10137884 0.21444063
000130 40 9a 40 bc b6 d7 0b 3d 66 40 9c bd 76 57 da bd
       -0.011755526 0.034141265 -0.076294705 -0.10661213
000140 ec 67 28 bb 9c bb 92 3d 12 96 f7 bd b0 ed fb 3c
       -0.0025696708 0.0716469 -0.120891705 0.030752987
000150 cf 2a bc 3e 70 09 74 3c c0 45 10 3d 50 15 dd 3d
       0.3675141 0.014894828 0.03522277 0.10795081
000160 b8 d2 b7 3c 5c 54 b9 bd 40 be de bd 68 a9 cd 3d
       0.022439346 -0.090492934 -0.10876131 0.10042077
000170 c6 d8 b4 bd c1 e7 a2 bd c8 17 9f 3d 18 d6 73 3d
       -0.08830409 -0.0795436 0.07768208 0.059530348
000180 fe 18 1f 3e 8f 1e b9 3d 90 c5 ee bd 33 d7 78 bd
       0.15536878 0.09039032 -0.11658776 -0.060752105
000190 10 56 ee bb c8 f5 bd bc c0 0f b3 bd c0 14 14 bc
       -0.007273443 -0.023188487 -0.087432384 -0.00903815
0001a0 cf e6 c5 bd 60 45 09 3d 6f 48 44 3e 00 d5 48 3d
       -0.09663164 0.033513427 0.19168256 0.049031258
0001b0 a8 d9 2e bd 5a 26 a8 bd 2c ab d4 3d e3 d4 9c bd
       -0.042688042 -0.0821044 0.10384211 -0.076577924
0001c0 2c b6 d4 bd 12 d1 09 3d 10 df e3 3c fa c6 a3 3d
       -0.10386309 0.03364665 0.027816325 0.07996936
0001d0 ea ed ed bd 4a 33 c1 bc c4 68 8b bd 3d 9b aa bd
       -0.11617644 -0.023584027 -0.06807092 -0.083303906
0001e0 80 82 a2 bc 10 dd f8 3c 30 49 aa 3d ea 22 00 3e
       -0.019837618 0.030378848 0.08314741 0.12513319
0001f0 1d a2 4d 3d 70 d7 47 bd f0 14 c2 3c 9e 4a d7 bc
       0.05020343 -0.04878944 0.023691624 -0.026280697
000200 a4 f6 a1 3d 20 0e fa bd 40 67 f7 bd fe c3 b6 bd
       0.07908371 -0.122097254 -0.1208024 -0.08924101
000210 9b 9b da bd 3f ad 09 3e e0 ce c3 3d 19 b9 f0 bc
       -0.10674211 0.13444994 0.09560943 -0.029385136
000220 ff 1a c4 bd b4 26 65 be 10 01 cb 3c 04 31 c9 be
       -0.095754616 -0.22378045 0.02478078 -0.39295208
000230 ba a4 8c bd 62 04 6e bc b2 52 c5 bd 0c 48 0d be
       -0.068673566 -0.014527412 -0.096349135 -0.13797015
000240 36 f3 75 3c 8c 59 57 3d 4c 7d 45 bd f0 a4 f5 3c
       0.015011599 0.052575633 -0.048215196 0.029985875
000250 78 56 a9 be 00 f4 08 3c c0 2c 5c 3d 40 ec d1 3b
       -0.33073783 0.008358955 0.053753614 0.006406337
000260 80 69 e3 3c f0 3f 22 3d 84 13 b1 3d ce 6e da 3d
       0.027760267 0.039611757 0.086463004 0.106656656
000270 fe f1 be bd 84 96 b6 bd 0c b6 8e 3d c0 c4 0a bd
       -0.093235 -0.08915427 0.069683164 -0.03387904
000280 27 f5 c6 bc cb ba f3 3d 88 d4 b1 3c b8 d7 ef 3d
       -0.02428682 0.11900862 0.021707788 0.11711067
000290 cf 11 1a 3e 60 e4 fb 3b 7c 4f b4 3d e0 fd 51 bc
       0.15045856 0.0076871365 0.08804223 -0.012816876
0002a0 b5 f5 dc 3d a0 12 2e 3d 48 81 c1 3d b4 ca b0 3d
       0.107890524 0.04249823 0.094484866 0.086324126
0002b0 f4 5a 7d bd b1 9c 9b 3d 1c 9f de 3d f3 38 6a bd
       -0.061854318 0.07598246 0.108701915 -0.057183217
0002c0 1c 42 37 3d a5 1c 9e bc 52 85 d0 3b 55 8c f8 b8
       0.04474078 -0.019300768 0.0063635493 -0.000118517004
0002d0 40 5a 72 bc fc 5a 6a 3d e2 db 1d bd 73 0b 2c bd
       -0.014792025 0.057215676 -0.038539775 -0.042003106
0002e0 c8 3e b4 3c 88 1f 73 3d 00 8a e2 3a 83 21 31 3e
       0.022002593 0.059356242 0.0017283559 0.1729794
0002f0 94 c9 c4 3d f6 8b 4a bd ec 18 8e bd bb 75 96 bb
       0.096087605 -0.049449883 -0.06938347 -0.0045916713

fc3.bias f4 [3]
000000 9e 2c 37 b9 33 15 9c 3c 6f 2f 96 3d
       -0.00017468861 0.019053077 0.07333266
